model.pth (torch, 167825 bytes, 14 tensors)

0.weight f4 [64, 3, 3, 3]
0	0xbdec9c5c	-0.11553261
1	0xbe2c284d	-0.16812249
2	0xbe3854fd	-0.1800117
3	0xbe0f4577	-0.13991342
4	0xbab7dfc5	-0.001402848
5	0xbe3ef38f	-0.18647598
6	0x3db30cbf	0.087426655
7	0x3e3b3630	0.1828239
8	0xbd935a14	-0.071949154
9	0xbe256ff7	-0.16155992
10	0x3d9ea242	0.07745792
11	0x3e010535	0.12599643
12	0x3d298a3e	0.041391604
13	0x3d6cd33f	0.057818647
14	0xbca8d007	-0.020607008
15	0xbdfdb12f	-0.12387311
16	0xbe32b4d2	-0.1745179
17	0x3d9bb9dd	0.0760381
18	0x3db51011	0.08840955
19	0x3de64402	0.1124344
20	0x3de3313b	0.11093374
21	0xbdc5cfc0	-0.09658766
22	0x3bee5a19	0.007273924
23	0xbe3b29d6	-0.18277678
24	0x3da2218a	0.07916553
25	0x3d3c7626	0.046011113
26	0xbe12207a	-0.14270201
27	0x3e1c8b5f	0.15287541
28	0xbe37406c	-0.17895669
29	0x3d57db05	0.052699108
30	0xbc2e7b69	-0.01064954
31	0xbda70115	-0.08154503
32	0xbdd949ea	-0.10609801
33	0xbe0d8925	-0.13821848
34	0xbd2ead58	-0.042645782
35	0x3da2f776	0.07957356
36	0xbe0c632d	-0.13709708
37	0x3d1f6923	0.038918626
38	0xbe37f2d6	-0.17963728
39	0xbbc3dd67	-0.005977321
40	0x3d9c6f83	0.07638457
41	0x3dbb0bc5	0.09133104
42	0x3e377205	0.17914589
43	0x3c6b7a08	0.014372356
44	0xbd94ac72	-0.07259454
45	0x3b338a07	0.0027395503
46	0xbd0942a6	-0.033510827
47	0x3a29f6f4	0.0006483637
48	0xbde76eb3	-0.11300411
49	0x3e08546c	0.13313454
50	0xbd6876e8	-0.056754023
51	0x3dd9645d	0.10614846
52	0xbe1fbd3e	-0.15599534
53	0xbdb05870	-0.08610618
54	0x3ce630f9	0.028099524
55	0x3c922501	0.01783991
56	0x3e110f95	0.141661
57	0xbe1a5caf	-0.15074418
58	0x3d2fa169	0.042878542
59	0x3e2ab5c5	0.16670902
60	0xbd94d4e6	-0.0726717
61	0x3d104994	0.03522642
62	0xbdefb5ad	-0.11704574
63	0x3d890cbd	0.06691883
64	0x3c8e4093	0.017364776
65	0xbe443289	-0.19159903
66	0x3cd624c2	0.026140574
67	0xbe23b3ef	-0.15986608
68	0x3e12ef8d	0.14349194
69	0x3d9004e6	0.07032184
70	0x3ba60c93	0.005067417
71	0xbe3ea156	-0.18616232
72	0xbd193c7f	-0.03741121
73	0x3dd0ea3f	0.10200929
74	0x3d48a8df	0.048989173
75	0x3cee5dd6	0.029097479
76	0x3d345393	0.044025015
77	0x3d612192	0.054963656
78	0xbce42f43	-0.027854567
79	0x3d8a6065	0.06756667
80	0x3d90c820	0.07069421
81	0x3de43e80	0.111447334
82	0x3db99876	0.09062283
83	0x3c4cdc01	0.012503625
84	0xbd18bb5e	-0.037288062
85	0x3d8845c8	0.06653935
86	0x3e2150da	0.15753499
87	0xbe378639	-0.17922296
88	0x3e03673b	0.12832348
89	0xbe088950	-0.1333363
90	0x3dd41b6d	0.103567936
91	0x3e2eab6a	0.17057577
92	0xbd4e4aa7	-0.050364163
93	0xbdd565df	-0.10419821
94	0x3e2462fe	0.16053388
95	0xbd944de9	-0.07241423
96	0xbdb1123a	-0.086460546
97	0x3d01a254	0.03164895
98	0xbda46f29	-0.080290146
99	0xbdd2efc4	-0.10299638
100	0xbda5cba3	-0.08095481
101	0x3b6b5a43	0.0035911954
102	0xbd7e6c17	-0.0621148
103	0xbdd9e345	-0.10639051
104	0xbe357778	-0.17721355
105	0xbe3fa260	-0.18714285
106	0xbdd8e9f0	-0.10591495
107	0x3e3becee	0.183521
108	0x3d10b4bf	0.035328623
109	0x3debcd6e	0.11513792
110	0x3a793b02	0.0009507389
111	0xbe31c833	-0.17361526
112	0xbddfbe7f	-0.10925006
113	0xbdc3b92c	-0.09556803
114	0xbc527a0c	-0.012846481
115	0xbde5ee3c	-0.1122708
116	0xbd403220	-0.046922803
117	0x3e05647a	0.1302661
118	0x3e389cf3	0.18028621
119	0x3d03f7de	0.032218806
120	0x3e229cc5	0.15880115
121	0x3d2562ff	0.040377613
122	0xbe1cb429	-0.153031
123	0x3da54f63	0.080717824
124	0xbde59085	-0.112092055
125	0xbe38ed0c	-0.18059176
126	0xbe2b5d42	-0.16734794
127	0xbd9f37b0	-0.077742934
128	0x3dce842e	0.10083805
129	0x3da052dd	0.07828305
130	0xbe26070b	-0.16213624
131	0xbca97833	-0.020687198
132	0xbe308b28	-0.17240584
133	0xbdff9d32	-0.124811545
134	0xbdea33e5	-0.11435679
135	0x3c5d6f39	0.013515287
136	0x3c44e2c5	0.012016957
137	0xbe124e72	-0.14287737
138	0xbcef0d40	-0.029181123
139	0x3e00f62a	0.12593904
140	0xbdd949b9	-0.106097646
141	0xbdf1295f	-0.11775469
142	0xbc497df4	-0.012298096
143	0xbe2883ce	-0.1645653
144	0x3de97bd9	0.11400575
145	0x3d9052b8	0.07047027
146	0xbda6ba3a	-0.08140989
147	0x3e07c059	0.13256969
148	0xbd21e0c4	-0.039520994
149	0x3cd1ccc7	0.02561034
150	0xbddb1c80	-0.10698795
151	0xbdb1bb84	-0.08678344
152	0xbbcc501e	-0.0062351367
153	0xbde8b828	-0.1136325
154	0x3e1c17a6	0.15243396
155	0xbc9ed060	-0.01938647
156	0xbe2017e9	-0.15634121
157	0x3e294556	0.16530356
158	0x3e1f5406	0.15559396
159	0x3dcfcc10	0.10146344
160	0x3dba5e56	0.091000244
161	0x3e1ef1ff	0.15522002
162	0xbe2293ed	-0.15876742
163	0xbe3dee83	-0.18548016
164	0x3e318889	0.1733724
165	0xbdc69b3d	-0.09697578
166	0xbe336450	-0.17518735
167	0xbe1e6902	-0.15469745
168	0x3e382cde	0.17985865
169	0xbdfaa614	-0.12238708
170	0x3cfb8745	0.03070415
171	0xbd0d32ff	-0.03447246
172	0x3dd45b33	0.10368957
173	0xbe22a192	-0.15881947
174	0x3d2db9e5	0.04241361
175	0x3e21e1a4	0.15808731
176	0xbe3e08bc	-0.1855802
177	0x3e073e7d	0.13207431
178	0xbc342418	-0.010994934
179	0xbe0cf828	-0.13766539
180	0xbd3e5e84	-0.046476856
181	0xbe3b7234	-0.18305284
182	0xbdbf2460	-0.0933311
183	0xbcd285d4	-0.02569858
184	0x3c8d06f9	0.017215239
185	0xbe2a932d	-0.16657706
186	0x3e1c9a3a	0.15293208
187	0xbd8776a1	-0.066144235
188	0x3dac6a7d	0.084187485
189	0xbe21d8c5	-0.15805347
190	0x3dd365f6	0.10322182
191	0x3e271ef0	0.16320395
192	0x3e2e5e0c	0.17028064
193	0xbdbab494	-0.09116474
194	0x3d36fe58	0.044676155
195	0x3d223b0f	0.039607104
196	0xbdc54021	-0.09631372
197	0xbe31792b	-0.17331378
198	0xbdc5bd5d	-0.09655259
199	0xbdccc592	-0.09998621
200	0xbbf1029c	-0.0073550474
201	0x3d00c13e	0.03143429
202	0x3e08a65e	0.13344714
203	0xbcad5aa5	-0.021161387
204	0xbde09e4d	-0.109676935
205	0x3db1eccc	0.086877435
206	0x3e2ddb65	0.16978224
207	0x3c9a0ea6	0.018805813
208	0x3d1ac7a0	0.037788033
209	0xbe0d5c89	-0.1380483
210	0x3e312649	0.17299761
211	0xbdf9ff41	-0.12206889
212	0x3e107644	0.14107615
213	0x3cba2141	0.022720935
214	0xbe395bd1	-0.18101431
215	0xbe081ebe	-0.13292977
216	0x3c3442e9	0.011002281
217	0xbdcf1ddf	-0.10113119
218	0x3e1e6fe1	0.15472366
219	0xbd349c3b	-0.044094305
220	0xbdb76f38	-0.0895676
221	0x3e1700a0	0.14746332
222	0x3e1033a5	0.14082201
223	0xbe1b1742	-0.15145591
224	0x3d9415de	0.07230733
225	0x3c04ad60	0.008097976
226	0x3de1c315	0.11023537
227	0x3d3e7bd8	0.046504825
228	0xbda4adb8	-0.08040947
229	0xbdcda982	-0.10042097
230	0xbe320a18	-0.17386663
231	0x3e1b148a	0.15144554
232	0x3e01b628	0.12667143
233	0xbde78f21	-0.113065965
234	0xbe035519	-0.12825431
235	0x3d87a466	0.066231534
236	0xbe035dfa	-0.12828818
237	0x3e3ee11c	0.1864056
238	0xbcff4806	-0.031162273
239	0xbda7a289	-0.08185298
240	0xbddbc06b	-0.1073006
241	0x3e1fbe74	0.15599996
242	0x3dc51f2a	0.09625085
243	0x3dc238d8	0.09483498
244	0xbcc9be7b	-0.024626961
245	0x3e3c76cc	0.18404692
246	0x3e3c16b8	0.18368042
247	0xbe3493a6	-0.17634448
248	0xbdfcdb61	-0.12346531
249	0xbd81700a	-0.06320198
250	0xbe13f197	-0.14447628
251	0xbc34e24c	-0.0110402815
252	0xbde7b704	-0.11314204
253	0xbd6e8c85	-0.05823948
254	0x3cce08fe	0.025150772
255	0x3e089e08	0.13341534

0.bias f4 [64]
0	0x3defa38a	0.117011145
1	0x3bbe856c	0.005814245
2	0xbdac7eaf	-0.084226005
3	0x3c9dc540	0.019259095
4	0x3e3b7ff5	0.1831053
5	0x3e270e3f	0.16314028
6	0x3e29e34b	0.16590612
7	0x3dcb957a	0.0994062
8	0xbd944a71	-0.07240761
9	0x3c5c3050	0.013439253
10	0x3d30f6c8	0.0432041
11	0x3e11356f	0.1418054
12	0xbe173b04	-0.14768606
13	0xbda13c0f	-0.078727834
14	0x3da270e6	0.0793169
15	0x3ce2b260	0.027672946
16	0xbd540c04	-0.05176927
17	0x379ad8e1	1.8459223e-05
18	0xbdb34f7f	-0.08755397
19	0x3df12152	0.117739335
20	0xbde80ea9	-0.11330921
21	0x3e0bf5d1	0.1366799
22	0x3ca2a1c0	0.019852519
23	0x3e13e05f	0.1444106
24	0x3d641144	0.05568053
25	0xbb35cfc9	-0.0027742258
26	0xbe3ec343	-0.18629174
27	0xbe0de3ac	-0.13856381
28	0x3e1c657b	0.15273087
29	0xbc836a18	-0.0160418
30	0x3d36a834	0.044594005
31	0x3e1c9213	0.15290098
32	0x3d418148	0.047242433
33	0xbbac3040	-0.0052547753
34	0xbc88f9b8	-0.016720638
35	0x3d9f7aea	0.07787116
36	0xbe0a3044	-0.13494974
37	0x3e12b3c9	0.14326395
38	0xbe1cb599	-0.15303649
39	0x3da85e56	0.08221118
40	0x3bdacdc2	0.0066773603
41	0xbc945258	-0.01810567
42	0xbd07d238	-0.033159465
43	0xbdafbca9	-0.08580906
44	0x3d1a005c	0.037598
45	0xbdbec644	-0.0931516
46	0x3d8d2632	0.06892051
47	0xbe239277	-0.1597384
48	0x3db06b6e	0.086142406
49	0xbd19bccc	-0.037533566
50	0x3e346485	0.1761647
51	0x3e0c2079	0.13684262
52	0x3dca8472	0.09888543
53	0xbc532862	-0.012888046
54	0xbe1bbb2c	-0.15208119
55	0xbdcc6d8b	-0.09981831
56	0xbe032558	-0.12807214
57	0xbe2ea757	-0.17056023
58	0xbd83b4f4	-0.064309984
59	0x3dd376c6	0.103253886
60	0xbe18caf4	-0.1492117
61	0xbdff7e5d	-0.12475274
62	0xbe2448d2	-0.16043404
63	0xbe3bab2a	-0.18327013

1.weight f4 [64]
0	0x3f8011f2	1.0005476
1	0x3f7fc4cd	0.9990967
2	0x3f803e67	1.0019044
3	0x3f7ffc06	0.9999393
4	0x3f7ff51f	0.999834
5	0x3f800bb4	1.0003572
6	0x3f801555	1.000651
7	0x3f7fd9f2	0.99941933
8	0x3f801c11	1.0008565
9	0x3f7fef5c	0.9997461
10	0x3f7fe643	0.99960726
11	0x3f803d23	1.0018657
12	0x3f7fd932	0.9994079
13	0x3f80130e	1.0005815
14	0x3f7ff177	0.9997782
15	0x3f7ff4b3	0.99982756
16	0x3f7ff417	0.99981827
17	0x3f7fa4fa	0.9986111
18	0x3f7ff7d4	0.9998753
19	0x3f7fd7e6	0.9993881
20	0x3f802bf1	1.001341
21	0x3f7f4963	0.99721354
22	0x3f7ffd71	0.99996096
23	0x3f803c07	1.0018319
24	0x3f800712	1.0002158
25	0x3f7fe828	0.9996362
26	0x3f80051e	1.0001562
27	0x3f8005b8	1.0001745
28	0x3f7fda43	0.99942416
29	0x3f7fa254	0.9985707
30	0x3f804028	1.0019579
31	0x3f802e25	1.0014082
32	0x3f7f95d5	0.99838
33	0x3f801074	1.0005021
34	0x3f7fcab1	0.9991866
35	0x3f7fc03a	0.9990269
36	0x3f7fef0e	0.99974144
37	0x3f7fc4ef	0.9990987
38	0x3f7fc17c	0.9990461
39	0x3f7fe1f1	0.99954134
40	0x3f7fe690	0.99961185
41	0x3f7fc2d6	0.9990667
42	0x3f801852	1.0007422
43	0x3f8012ef	1.0005778
44	0x3f7fb23f	0.99881357
45	0x3f7ffb30	0.99992657
46	0x3f8021c4	1.0010304
47	0x3f7fed33	0.9997131
48	0x3f7febb3	0.99969023
49	0x3f80244a	1.0011075
50	0x3f80135a	1.0005906
51	0x3f7ffe28	0.99997187
52	0x3f8008ce	1.0002687
53	0x3f80186b	1.0007452
54	0x3f7ff5b3	0.9998428
55	0x3f7fbbf1	0.9989615
56	0x3f7fefb0	0.9997511
57	0x3f801d86	1.000901
58	0x3f7ffd7b	0.99996156
59	0x3f7fdee6	0.9994949
60	0x3f8015c9	1.0006648
61	0x3f7ff5cc	0.9998443
62	0x3f802ae3	1.0013088
63	0x3f7ff62e	0.99985015

1.bias f4 [64]
0	0x3a901cbd	0.0010994893
1	0xba6e0abb	-0.00090805785
2	0x3ad05951	0.0015895759
3	0x39e67336	0.00043954857
4	0x3a08078d	0.00051891134
5	0x3a9c5ff5	0.0011930453
6	0x39d3910c	0.00040353124
7	0xb8c0846d	-9.17994e-05
8	0x39d21e11	0.00040076723
9	0xb9933d2c	-0.00028083602
10	0xba6df448	-0.0009077233
11	0x3aa18c26	0.0012325093
12	0xba15a15f	-0.0005707945
13	0x39e556ba	0.000437429
14	0x3a3331c3	0.0006835723
15	0x395e385d	0.00021192567
16	0x3a29d176	0.00064780505
17	0xba9b8457	-0.0011865002
18	0x3aa7cc01	0.0012801887
19	0xb9ccccf8	-0.00039062626
20	0x3a9edcca	0.0012120244
21	0xbaa8a753	-0.0012867249
22	0xba82163a	-0.0009924837
23	0x3ab743d2	0.0013982004
24	0x397cb268	0.00024099054
25	0x3a2f409d	0.00066853483
26	0xb9e364d6	-0.00043371943
27	0x3980e031	0.00024581098
28	0x39091ca5	0.00013076009
29	0xba13fb40	-0.0005645044
30	0x3b385502	0.002812684
31	0x3a69d536	0.00089200155
32	0xbb254cd2	-0.002522279
33	0x3a19d74f	0.00058685703
34	0xb8f27c2b	-0.00011562587
35	0x3a8400af	0.0010071005
36	0x3988d6e5	0.0002610005
37	0xb7bcb89b	-2.249731e-05
38	0xba60716a	-0.0008561822
39	0xb90d481e	-0.00013473674
40	0x392e5e5d	0.00016629086
41	0xba316d27	-0.0006768279
42	0x3a821823	0.0009925406
43	0x397e7e9a	0.0002427049
44	0xba79b3d8	-0.0009525395
45	0x39ff701b	0.00048720915
46	0x3ab59aa7	0.0013855294
47	0xba13024d	-0.0005607948
48	0xb9865a58	-0.00025625783
49	0x3916172b	0.00014313745
50	0x3a11f906	0.00055684184
51	0xb925a53c	-0.00015797181
52	0x3a1c054d	0.00059517176
53	0xba0a5268	-0.0005276562
54	0xba3ac319	-0.0007124409
55	0xb9c579a0	-0.00037665386
56	0xba8199e4	-0.0009887782
57	0x3a4798c0	0.0007614009
58	0x3a04aa06	0.0005060736
59	0xba07ab6d	-0.0005175386
60	0x3a885329	0.001040076
61	0xbafc2054	-0.0019235709
62	0x3a9277e1	0.0011174643
63	0xba031258	-0.0004999987

1.running_mean f4 [64]
0	0x3dfdbabb	0.12389132
1	0x3dc9807e	0.09838961
2	0xbe537943	-0.20651726
3	0x3e9c928e	0.30580562
4	0x3ee892dd	0.45424548
5	0xbdc3d0f6	-0.095613405
6	0x3eabeff7	0.33581516
7	0x3e2a5a0f	0.16635917
8	0xbda2b3a0	-0.07944417
9	0x3e4cea2c	0.20011204
10	0x3e8a0b92	0.26961952
11	0x3e8b9de5	0.272689
12	0xbe0d30f7	-0.1378821
13	0xbe0afaae	-0.13572189
14	0x3e5caa75	0.21549399
15	0x3dfdb73c	0.12388465
16	0x3cff746a	0.03118344
17	0xbd9c7f8f	-0.07641517
18	0x3dc95d98	0.09832305
19	0x3eff20ca	0.49829704
20	0xbe4180fd	-0.18896861
21	0x3ccd5f71	0.025069924
22	0x3b75a6a8	0.0037483368
23	0x3d7cffb7	0.061767306
24	0x3db6d96e	0.0892819
25	0xbd842dd1	-0.06454051
26	0xbda82bf8	-0.082115114
27	0xbe12ddd0	-0.14342427
28	0x3e9b1a47	0.30293486
29	0x3d1c05a4	0.038091317
30	0xbe16bea7	-0.14721166
31	0x3e13c66f	0.14431165
32	0x3eb81f7d	0.35961524
33	0xbe42e817	-0.19033848
34	0x3e3c4a2f	0.18387674
35	0x3e90b272	0.28261143
36	0x3e1c62d7	0.1527208
37	0xbd7d7524	-0.061879292
38	0xbd956745	-0.07295088
39	0x3ce77c69	0.028257566
40	0xbe91a4df	-0.284461
41	0xbda1a052	-0.07891907
42	0xbe0748ab	-0.13211314
43	0xbe1476f9	-0.1449851
44	0x3e98d803	0.29852304
45	0xbe488586	-0.19582185
46	0x3bfaea61	0.0076573347
47	0xbdd04b12	-0.101705685
48	0xbd2a3735	-0.041556556
49	0xbd9af824	-0.0756686
50	0x3ee94994	0.45563948
51	0x3e842091	0.25806096
52	0xbdc978d0	-0.09837496
53	0x3cd84909	0.026402013
54	0x3c3b47c5	0.011430685
55	0x3cd540e6	0.026031923
56	0xbe965c81	-0.2936745
57	0xbdb11c4a	-0.08647974
58	0xbd08fde8	-0.03344527
59	0x3e992554	0.29911292
60	0x3e0fa3ae	0.14027283
61	0xbcf7e433	-0.030260181
62	0xbe378250	-0.17920804
63	0xbe167171	-0.14691712

1.running_var f4 [64]
0	0x3d9b44b8	0.075814664
1	0x3ce66a0f	0.028126745
2	0x3c615bc9	0.013754793
3	0x3ce38f49	0.027778285
4	0x3dfa13fe	0.122108445
5	0x3c3a08c4	0.011354629
6	0x3e11fec7	0.14257346
7	0x3c064ffe	0.008197783
8	0x3c02dd40	0.00798732
9	0x3df75bcf	0.12078058
10	0x3cf73d9b	0.030180743
11	0x3b948882	0.0045328746
12	0x3cfb1bfa	0.030652989
13	0x3d28709f	0.04112303
14	0x3d03dc38	0.03219244
15	0x3da78c8f	0.08181106
16	0x3cd1b914	0.025600947
17	0x3d8a6e51	0.067593224
18	0x3d76da8d	0.06026702
19	0x3db68654	0.0891234
20	0x3ccc329a	0.024926472
21	0x3c7e0aec	0.015505534
22	0x3cc61bd3	0.02418319
23	0x3cf644aa	0.030062038
24	0x3d8b316c	0.06796536
25	0x3cc6ef88	0.02428414
26	0x3e567f68	0.20947039
27	0x3c9a22ba	0.018815387
28	0x3defdf42	0.11712505
29	0x3c960343	0.018312102
30	0x3cc2dfd7	0.023788376
31	0x3b7f9add	0.0039002218
32	0x3ccb74a4	0.024835892
33	0x3db00762	0.08595158
34	0x3cf7f5c7	0.030268563
35	0x3c64041a	0.0139169935
36	0x3e16caff	0.14725874
37	0x3ca9d220	0.020730078
38	0x3ccd0dbd	0.025030965
39	0x3e2baa35	0.16764148
40	0x3d34b642	0.044119127
41	0x3d29cfb1	0.041457836
42	0x3c2851ad	0.010273379
43	0x3cafdd73	0.0214679
44	0x3db7c115	0.08972374
45	0x3d277dfb	0.04089163
46	0x3cea650c	0.028612636
47	0x3d441b90	0.04787785
48	0x3d385007	0.044998195
49	0x3b9508f5	0.004548187
50	0x3cf44c0a	0.029821415
51	0x3d840a7c	0.06447312
52	0x3d8d1ab9	0.068898626
53	0x3c5cadee	0.013469202
54	0x3d721500	0.05910206
55	0x3cfc1fb9	0.030776845
56	0x3ceddcad	0.02903589
57	0x3e26af55	0.16277821
58	0x3cfb4199	0.030670928
59	0x3c87b6c5	0.016566643
60	0x3c72c6a2	0.014817866
61	0x3dab785e	0.083725676
62	0x3c6a7fed	0.014312726
63	0x3c951cba	0.018202174

4.weight f4 [64, 64, 3, 3]
0	0xbcae98b9	-0.021313058
1	0xbd27ec3e	-0.040996782
2	0xbb9da181	-0.0048105125
3	0xbcf0edfd	-0.029410357
4	0xbc80ec5f	-0.01573771
5	0xbd23fed3	-0.04003794
6	0x3bea5ed0	0.007152416
7	0xbcd9a3bc	-0.026567332
8	0xbcc6d1b0	-0.024269909
9	0xbc994a8f	-0.01871231
10	0xbd02677a	-0.031836964
11	0xbce81191	-0.028328689
12	0xba29e5a1	-0.0006481056
13	0xbcdb4ecc	-0.026770972
14	0x3c896867	0.016773416
15	0xbd180596	-0.037114702
16	0xbc82ba93	-0.015958106
17	0xbcc5389a	-0.024074841
18	0x3d10fbeb	0.035396498
19	0xbccc4db2	-0.024939392
20	0x3d23f46f	0.040028032
21	0x3d2c0a3b	0.042001944
22	0xbd11bbf7	-0.035579648
23	0xbcd16ca7	-0.025564505
24	0x3c537423	0.012906107
25	0xb99efc9c	-0.00030324317
26	0xb9e7600c	-0.00044131314
27	0x3d16de80	0.036833286
28	0x3ca93402	0.020654682
29	0xbcac379c	-0.02102261
30	0x3cbedd60	0.02329892
31	0xbcb71618	-0.022349402
32	0xbc650cc6	-0.013980096
33	0xbcaf73d2	-0.021417532
34	0xbb4ce533	-0.0031264543
35	0x3cec7de7	0.028868629
36	0x3cdcd3bf	0.026956437
37	0x3d10d441	0.03535867
38	0xbc91878d	-0.017764831
39	0xbabc1990	-0.001435088
40	0xbd19321d	-0.037401307
41	0x3d0e226d	0.0347008
42	0x3c73ed09	0.014888057
43	0x3cf0fe62	0.029418174
44	0x3a819509	0.0009886335
45	0xbb00e5e2	-0.001966827
46	0x3cd65595	0.026163856
47	0x3c8a515b	0.016884496
48	0xbb02c184	-0.001995177
49	0xbb943541	-0.00452295
50	0xbcb85fb0	-0.022506565
51	0x3d0b65b3	0.034032535
52	0xbbc2cfda	-0.005945188
53	0x3bf3d067	0.007440615
54	0xbd01dd75	-0.03170534
55	0xbcf0b697	-0.02938394
56	0xbba7a420	-0.005116001
57	0x3cdf070d	0.027225042
58	0xbcc8d37a	-0.024514902
59	0xbcaf3788	-0.021388784
60	0xbd068ceb	-0.032849234
61	0x3ca638c2	0.020290736
62	0x3d202c60	0.03910482
63	0x3c83f881	0.016109707
64	0xbc85663b	-0.016284099
65	0x3c1e6b09	0.009669074
66	0xbd2a3f09	-0.04156402
67	0x3c34340d	0.010998738
68	0x3bae3b98	0.0053171627
69	0x3d294fb7	0.041335788
70	0x3aa5a26a	0.0012636904
71	0xbcd92c86	-0.026510488
72	0xbce653f5	-0.028116206
73	0xbcd3b7b9	-0.025844442
74	0x3ce496a9	0.027903872
75	0x3c0611fc	0.008182999
76	0x3c07fcca	0.008300016
77	0x3d1d21c4	0.03836228
78	0x3ce712a0	0.028207123
79	0x3c5586c1	0.013032616
80	0xbcb6455c	-0.02224987
81	0xbcf472ca	-0.029839892
82	0xbbaf9507	-0.0053583416
83	0xbd0b1dd8	-0.033964008
84	0x3cf7b53f	0.030237792
85	0xbca91387	-0.020639194
86	0x3ccfec43	0.025381213
87	0xbab69d76	-0.0013932425
88	0xbcfe3555	-0.03103129
89	0x3cd69187	0.02619244
90	0x3d19df78	0.037566632
91	0xbc266649	-0.010156223
92	0xbc80a29f	-0.015702544
93	0x3ce944a2	0.02847511
94	0xbccecd4c	-0.025244378
95	0xbcf9012e	-0.03039607
96	0xbd23b555	-0.039967854
97	0xbcb09c1a	-0.02155881
98	0xbce0b5ca	-0.027430434
99	0x3d1da31f	0.038485643
100	0xbc16e977	-0.009210936
101	0xbcc7573e	-0.024333593
102	0x3b99eaa6	0.0046971617
103	0xbcede6f7	-0.029040797
104	0xbd1185c5	-0.035527963
105	0xbd00a568	-0.031407744
106	0x3cf0ec60	0.029409587
107	0xbb659005	-0.003502847
108	0xbbc958e9	-0.006144632
109	0x3cac6e88	0.0210488
110	0x39eea153	0.00045515093
111	0xbd1503ce	-0.03638058
112	0x3c650015	0.01397707
113	0x3c116bf5	0.008875837
114	0x3d223a60	0.039606452
115	0x3d1ffb66	0.03905811
116	0x3b00998e	0.0019622776
117	0xbcaf95c3	-0.021433717
118	0xbd1ffa78	-0.039057225
119	0x3c48d9ab	0.012258927
120	0x3ca9ca2e	0.02072629
121	0xbc1b0d99	-0.009463691
122	0xbd0ce7c0	-0.0344007
123	0xbc578f9b	-0.013156797
124	0xbc29e50a	-0.010369549
125	0xbb21066d	-0.002457048
126	0xbcf74365	-0.030183503
127	0xbd2c7969	-0.042107973
128	0x3c1ca768	0.009561397
129	0xbd2d7062	-0.042343505
130	0xbb12dd20	-0.0022409633
131	0xbd1e8c2e	-0.038707905
132	0xbb80bbec	-0.003928652
133	0xbd21eed4	-0.039534405
134	0x3d12193b	0.035668593
135	0x3cfabfa1	0.030608954
136	0x3d1f7887	0.038933303
137	0x3c9bbda2	0.019011322
138	0xbc4cde93	-0.012504238
139	0x3c976954	0.018482842
140	0x3ce348a7	0.027744604
141	0xbcc9f9a5	-0.024655173
142	0x3cbfb9d7	0.023404045
143	0xbc263af6	-0.010145893
144	0x3b120af9	0.0022284372
145	0x3c651ed8	0.0139844045
146	0xb97a3529	-0.00023861662
147	0xbcb2cffa	-0.021827687
148	0x3c907e42	0.01763833
149	0x3d14d07a	0.03633163
150	0xbc6de38d	-0.014519584
151	0x3cc49656	0.023997467
152	0xbd1d0c09	-0.038341556
153	0x3be640de	0.0070267757
154	0xbd28648c	-0.041111514
155	0xbc2099b9	-0.009802275
156	0xbd2de08e	-0.04245048
157	0xbc11191b	-0.008856083
158	0x3c35b0d7	0.011089525
159	0x3d16760b	0.03673367
160	0x3cd82b06	0.026387703
161	0x3d07d442	0.03316141
162	0xbd035fe7	-0.03207388
163	0xbce02dba	-0.027365554
164	0x3bf4f964	0.0074760187
165	0x3d1d7894	0.03844507
166	0xbc0295b5	-0.007970263
167	0x3d2adad3	0.041712593
168	0xbc332b7c	-0.01093566
169	0xbc8a0476	-0.01684783
170	0xbd288d9e	-0.04115068
171	0x3ce65dcb	0.028120896
172	0xbd1d697b	-0.038430672
173	0x3c6d040b	0.014466296
174	0xb989e590	-0.00026301714
175	0x3b44ee44	0.0030049244
176	0x3d17c3c0	0.037051916
177	0x3beefaac	0.007293066
178	0x39d5d84f	0.00040787688
179	0x3ae7a609	0.0017673384
180	0xbd24f0a1	-0.040268544
181	0xbd182ab4	-0.0371501
182	0x3ccc47a1	0.0249365
183	0x3bbce293	0.0057643144
184	0xbba93a11	-0.0051643928
185	0x3c9c35f0	0.019068688
186	0xbd005ebc	-0.031340346
187	0xbc46a1b0	-0.01212351
188	0x3d04f235	0.03245755
189	0xbc25a89f	-0.010111003
190	0x398d80bd	0.00026989533
191	0x3c94c0f7	0.018158419
192	0xbcf5fc1f	-0.030027447
193	0xbd0e6ed7	-0.034773674
194	0x3c111c1d	0.0088568
195	0x3ccd345a	0.025049377
196	0x3bb4bc3d	0.005515604
197	0xbc907e4e	-0.017638352
198	0x3bf5c9dc	0.00750087
199	0x3c4130ad	0.01179139
200	0xbb094388	-0.0020944793
201	0xbc806aea	-0.01567598
202	0xbcb7fc5e	-0.022459205
203	0xbcb8bebe	-0.02255189
204	0xbd010269	-0.03149644
205	0xbad35195	-0.0016122336
206	0xbcc49ece	-0.024001505
207	0x3d027038	0.0318453
208	0x3d0e5549	0.034749303
209	0xbd078d2b	-0.033093613
210	0xbc9cd58a	-0.019144792
211	0x3d22073b	0.039557677
212	0xbd084e81	-0.033277992
213	0x3cc7245a	0.024309326
214	0x3d12f826	0.035881184
215	0x3d147960	0.036248565
216	0x3d1b8727	0.03797069
217	0xbc8564b3	-0.016283369
218	0x3cf2cdc7	0.029639138
219	0x3aec79b2	0.0018041639
220	0xbb9d705b	-0.0048046536
221	0x3b68127a	0.0035411404
222	0x3ce8af71	0.02840397
223	0xbd25d274	-0.040483907
224	0xbc615ccb	-0.013755034
225	0x3cf9e699	0.030505465
226	0x3ca83ef3	0.020537829
227	0xbca27919	-0.019833134
228	0xbbfc80e7	-0.007705796
229	0xbcc416ff	-0.023936747
230	0xbcd32ad7	-0.025777264
231	0xbbb31673	-0.0054653226
232	0xbb196d07	-0.0023410933
233	0xbcf0750d	-0.02935269
234	0xbd1e0963	-0.03858317
235	0x3caa9780	0.020824194
236	0x3ca04ebd	0.019568795
237	0x3cbbb9f0	0.02291581
238	0x3c15f6d8	0.00915309
239	0x3c7764e7	0.015099741
240	0xbcc3658b	-0.02385213
241	0xbc668e84	-0.014072064
242	0x3cf4f315	0.029901067
243	0xbc92940c	-0.01789286
244	0xbcf8a6f2	-0.030353043
245	0xbc15775e	-0.009122698
246	0x3cb431ea	0.021996457
247	0xbcb864f6	-0.02250908
248	0x3d231bed	0.039821554
249	0xbad98edd	-0.0016598363
250	0xbc0e31c3	-0.008678856
251	0x3c94bc01	0.018156053
252	0x3cf7ed4e	0.030264523
253	0xbc77df07	-0.015128857
254	0x3cc2a63e	0.023760911
255	0xbbd5109c	-0.006502224

4.bias f4 [64]
0	0xbb5a1370	-0.0033275746
1	0x3d252101	0.040314678
2	0x3bde4700	0.006783366
3	0xbbcbea20	-0.0062229782
4	0xbca6e196	-0.02037124
5	0xbd1228c4	-0.03568341
6	0x3c97abf2	0.018514607
7	0xbb642cf0	-0.0034816824
8	0xbc2fd4dc	-0.010731902
9	0xbc5c85f6	-0.013459673
10	0x3c18c39c	0.009323981
11	0x3d1b865b	0.03796993
12	0xbc7d6dbc	-0.015468057
13	0xbc437eb6	-0.011932066
14	0x3c66ad9c	0.014079478
15	0x3c95c7ae	0.018283691
16	0xbbe0a318	-0.00685538
17	0x3d1236c7	0.03569677
18	0xbd1149f8	-0.035470933
19	0xbcf4ec4b	-0.02989783
20	0xbd277aab	-0.04088847
21	0xbd20f37f	-0.039294716
22	0xbcd4775b	-0.02593582
23	0xbd09a862	-0.033607848
24	0x3b1def77	0.002409903
25	0x3d0c03b5	0.034183223
26	0xbc0446c4	-0.008073512
27	0x3d080a81	0.033213142
28	0x3d189799	0.03725395
29	0xbc8198d3	-0.015819943
30	0xbcce6d1b	-0.02519851
31	0xbc3d7946	-0.011564558
32	0xbbb89260	-0.0056326836
33	0x3cd46a5a	0.025929619
34	0xbc2aa1cc	-0.010414552
35	0xbd04208e	-0.03225761
36	0x3cf2eaba	0.029652942
37	0xbc7a9300	-0.015293837
38	0x3ccdbcfe	0.025114533
39	0x3c9e38fa	0.019314278
40	0xbd17d946	-0.037072442
41	0xbcab8f93	-0.020942485
42	0xbc47fca0	-0.012206227
43	0x3d0c675f	0.03427827
44	0x3c8a4a28	0.016881064
45	0xbc7d609c	-0.015464928
46	0xbd204704	-0.039130226
47	0xbcf08d6e	-0.029364314
48	0x3cea7cf2	0.028624032
49	0x3b25d541	0.0025304111
50	0xbccc5438	-0.024942502
51	0x3c9367fe	0.017993923
52	0x3b29f7fa	0.002593516
53	0x3cc62766	0.024188709
54	0x3cbb083e	0.022831079
55	0xbc9f9ff8	-0.019485459
56	0xbce77b2e	-0.028256979
57	0x3d16512d	0.03669851
58	0xbc6ef63c	-0.014585074
59	0xbd1785de	-0.0369929
60	0x3d279b31	0.040919486
61	0xbc23a0c4	-0.00998706
62	0xbce4535b	-0.027871778
63	0xbcdcd25b	-0.026955774

5.weight f4 [64]
0	0x3f7fe301	0.99955755
1	0x3f7f8e8b	0.9982688
2	0x3f7feed3	0.9997379
3	0x3f803a9e	1.0017889
4	0x3f7fd322	0.9993154
5	0x3f8069b5	1.0032259
6	0x3f7ffda7	0.9999642
7	0x3f7fcabb	0.9991872
8	0x3f80623a	1.0029976
9	0x3f7fb787	0.99889416
10	0x3f7fa224	0.9985678
11	0x3f800246	1.0000694
12	0x3f801549	1.0006496
13	0x3f801d97	1.000903
14	0x3f7f7d00	0.9980011
15	0x3f80029c	1.0000796
16	0x3f8014d6	1.0006359
17	0x3f802161	1.0010186
18	0x3f7fd214	0.9992993
19	0x3f7f5e6a	0.9975344
20	0x3f7fa701	0.998642
21	0x3f801483	1.000626
22	0x3f804d16	1.0023525
23	0x3f7f9841	0.99841696
24	0x3f7f8699	0.99814755
25	0x3f801cc8	1.0008783
26	0x3f8022c7	1.0010613
27	0x3f801f08	1.000947
28	0x3f803b2b	1.0018057
29	0x3f7fa944	0.99867654
30	0x3f7f4874	0.9971993
31	0x3f8027cb	1.0012144
32	0x3f8007b9	1.0002357
33	0x3f800ed5	1.0004526
34	0x3f7fcfab	0.9992625
35	0x3f801b28	1.0008287
36	0x3f803812	1.0017111
37	0x3f7f21c9	0.9966093
38	0x3f7fe7fa	0.99963343
39	0x3f7f91bd	0.99831754
40	0x3f8033a4	1.001576
41	0x3f7fdff3	0.99951094
42	0x3f80302b	1.00147
43	0x3f801512	1.000643
44	0x3f800475	1.000136
45	0x3f7f8442	0.99811184
46	0x3f8015a7	1.0006608
47	0x3f7f723d	0.9978369
48	0x3f7ff5f2	0.9998466
49	0x3f7f9b1e	0.99846065
50	0x3f7f2ebd	0.9968069
51	0x3f801b73	1.0008377
52	0x3f80298f	1.0012683
53	0x3f7fd2db	0.99931115
54	0x3f801af0	1.0008221
55	0x3f7fd742	0.9993783
56	0x3f7fc153	0.99904364
57	0x3f7fdf94	0.9995053
58	0x3f7ffcac	0.9999492
59	0x3f7fc1bb	0.99904984
60	0x3f7fe222	0.99954426
61	0x3f7fd256	0.9993032
62	0x3f8039a5	1.0017592
63	0x3f80400f	1.0019549

5.bias f4 [64]
0	0x3a164c79	0.0005733441
1	0xba046c80	-0.0005051568
2	0x3a25c7f2	0.00063240447
3	0x3b3e9806	0.0029082312
4	0xb9986861	-0.00029069468
5	0x3bc6c620	0.006066099
6	0x3ab25ac8	0.0013607377
7	0x394a4c26	0.00019292589
8	0x3bbc8ee0	0.0057543367
9	0xba526c12	-0.0008026968
10	0xbaf42af1	-0.001862852
11	0x3a9e59f9	0.0012081257
12	0x3ae09eea	0.0017137204
13	0x3ac0ea0c	0.0014718189
14	0xbb28c375	-0.0025751267
15	0x3a435912	0.0007451932
16	0x3b002cdf	0.0019557995
17	0x3b193bcd	0.0023381591
18	0xb9816fc6	-0.00024688075
19	0xbb652a13	-0.0034967705
20	0xbadba155	-0.0016756455
21	0x3abc32e5	0.001435843
22	0x3b8a254d	0.0042158724
23	0xbac1fa86	-0.0014799393
24	0xba9b6788	-0.0011856416
25	0x3adca205	0.0016832954
26	0x3b36d42a	0.0027897456
27	0x3b1ba6b8	0.0023750495
28	0x3b329c4d	0.0027253807
29	0x3834cf5e	4.310847e-05
30	0xbb786dd2	-0.0037907255
31	0x3b2c1303	0.002625645
32	0x3ab9232b	0.0014124861
33	0x3b018d7d	0.0019768171
34	0xba0ba276	-0.0005326638
35	0x3b392c43	0.0028255142
36	0x3b62ea23	0.003462442
37	0xbb6a5ad1	-0.0035759697
38	0x3a092049	0.0005230946
39	0xbb1531a6	-0.0022765188
40	0x3b811e0c	0.0039403494
41	0x3a69b663	0.00089154224
42	0x3b6a987b	0.0035796452
43	0x3a7951cc	0.0009510785
44	0x3a14a902	0.0005670936
45	0xbafa3199	-0.0019088268
46	0x3ad3da9e	0.0016163175
47	0xbb71c9ed	-0.0036894039
48	0x3a6b6e58	0.0008980981
49	0xbad27193	-0.0016055576
50	0xbb9a2a2e	-0.0047047352
51	0x3a7d41fb	0.0009661016
52	0x3b5a1b24	0.0033280337
53	0xba718ea4	-0.00092146755
54	0x3b12dbf8	0.0022408944
55	0x39672422	0.00022043337
56	0xb9685c82	-0.00022159706
57	0xb981a0ea	-0.00024724688
58	0x3a4f78cb	0.0007914423
59	0xba3e104a	-0.0007250352
60	0xb95ec3f3	-0.00021244567
61	0x37fab17d	2.9884972e-05
62	0x3b88b365	0.004171776
63	0x3b8c5e17	0.0042836773

5.running_mean f4 [64]
0	0xbd46bac8	-0.048517972
1	0x3e45371a	0.19259301
2	0x3e14f320	0.1454587
3	0xbf06ad2d	-0.52607995
4	0xbc32bb98	-0.010908984
5	0xbeb2c463	-0.34915456
6	0xbd35ed61	-0.044415835
7	0x3e2a8a3f	0.16654299
8	0xbe935a32	-0.2877975
9	0xbe028fe2	-0.127502
10	0xbdd6cf93	-0.104888104
11	0x3d9682e7	0.073491864
12	0x3de076e7	0.10960179
13	0xbec14cc4	-0.3775388
14	0x3dd4a48c	0.10382947
15	0x3d4f84b3	0.05066366
16	0x3e25c0fa	0.16186896
17	0x3e287a3c	0.16452879
18	0xbe8c2188	-0.27369332
19	0xbe85c841	-0.26129344
20	0xbe19b432	-0.15010145
21	0xbf02a906	-0.5103916
22	0xbe5ccd9f	-0.21562813
23	0xbe83c94d	-0.25739518
24	0x3e353c29	0.1769873
25	0xbda34a31	-0.07973135
26	0xbe9d3559	-0.30704764
27	0x3eafaaff	0.34310147
28	0x3e43823d	0.1909265
29	0x3d8c41ff	0.06848525
30	0xbd64100b	-0.055679362
31	0xbe9e839e	-0.3095979
32	0x3e666dfd	0.22502895
33	0x3e863ce7	0.2621834
34	0x3e23666a	0.15957037
35	0xbf04eb47	-0.51921505
36	0xbeb210a6	-0.34778327
37	0x3edce1b6	0.43140954
38	0x3dfee439	0.12445874
39	0x3c8811f9	0.016610133
40	0xbf11b7a0	-0.56920815
41	0x3e2c2c42	0.16813758
42	0xbeaa0cd4	-0.33212912
43	0x3daeb82d	0.085312225
44	0xbdc8451f	-0.09778809
45	0x3e24986b	0.16073768
46	0xbe58db64	-0.21177441
47	0xbe7f892d	-0.24954672
48	0xbddd0a66	-0.10792999
49	0x3e031f4a	0.12804905
50	0xbe8a23ca	-0.2698043
51	0xbd9e1d76	-0.07720463
52	0x3dc791ea	0.09744628
53	0xbde5c947	-0.11220031
54	0xbe8d30f8	-0.27576423
55	0x3eb35ba6	0.3503086
56	0xbe78ea39	-0.24308099
57	0x3e033d61	0.12816383
58	0xbe24af1e	-0.16082427
59	0xbd937742	-0.07200481
60	0xbeccfe81	-0.4003792
61	0x3e364aa7	0.17801915
62	0xbf35cd9c	-0.7101686
63	0x3c5cad9a	0.013469124

5.running_var f4 [64]
0	0x3e48f83e	0.19625947
1	0x3e7115fb	0.23543541
2	0x3e185f45	0.14880092
3	0x3e2146b6	0.1574963
4	0x3daf04d5	0.085458435
5	0x3e1df9f6	0.15427384
6	0x3e374863	0.17898707
7	0x3e3ba94e	0.18326303
8	0x3df3efc2	0.119109645
9	0x3e2dea02	0.16983798
10	0x3dd87c80	0.105706215
11	0x3da8f6a3	0.08250167
12	0x3e9be728	0.30449796
13	0x3e1cc350	0.15308881
14	0x3e670570	0.22560668
15	0x3e45da18	0.19321477
16	0x3e5e1973	0.21689396
17	0x3ded9125	0.1159995
18	0x3e153320	0.14570284
19	0x3e2c9c14	0.16856414
20	0x3e4315f5	0.19051345
21	0x3e9783e4	0.29592812
22	0x3de1c296	0.110234424
23	0x3df84810	0.1212312
24	0x3dd2a85c	0.10286018
25	0x3e7e5ed4	0.24840862
26	0x3deea650	0.11652815
27	0x3e0897a8	0.13339102
28	0x3e26ecd6	0.16301283
29	0x3e79f3a7	0.24409352
30	0x3e065bec	0.13121003
31	0x3e77aa49	0.24186052
32	0x3df27d63	0.11840322
33	0x3e0a4440	0.13502598
34	0x3e1da6fb	0.15395729
35	0x3e2f0b0f	0.17094062
36	0x3e42a5b5	0.19008525
37	0x3e0aa342	0.1353884
38	0x3de03373	0.10947313
39	0x3deebc8f	0.116570584
40	0x3e580833	0.21096878
41	0x3e50ea7b	0.20401947
42	0x3eb3c4ab	0.35110983
43	0x3e4228d0	0.18960881
44	0x3e2af8ec	0.16696519
45	0x3dd400b9	0.103517
46	0x3dfe568f	0.124188535
47	0x3e0eb2e8	0.13935435
48	0x3e37e81f	0.17959641
49	0x3e043805	0.12911995
50	0x3e37adc3	0.17937379
51	0x3e526084	0.2054463
52	0x3e532faf	0.20623659
53	0x3e00211c	0.1251263
54	0x3e1b76c3	0.15182023
55	0x3e44b959	0.1921133
56	0x3df04115	0.117311634
57	0x3e17b31d	0.1481442
58	0x3dfb4a7f	0.122700684
59	0x3e084266	0.13306579
60	0x3e231c9f	0.15928887
61	0x3e34785f	0.17624043
62	0x3e87b97e	0.26508707
63	0x3e5eb59c	0.21748966

8.weight f4 [3, 64, 3, 3]
0	0x3d563f63	0.052306544
1	0xbcc2a3db	-0.023759773
2	0xbc15fd9a	-0.009154702
3	0xbcd0a8e3	-0.025471156
4	0x3bedafca	0.0072536217
5	0xbccc28be	-0.024921771
6	0x3ce74a53	0.028233683
7	0x3cbf4353	0.023347532
8	0x3d3ad48a	0.04561285
9	0x3ccb027d	0.02478146
10	0x3cb814d1	0.022470864
11	0x3c57ef8c	0.013179671
12	0x3c29f8c7	0.010374255
13	0x3d115708	0.03548339
14	0x3cb9b662	0.022669975
15	0x3a833ebd	0.0010013204
16	0xb9cc0eab	-0.0003892084
17	0xbc46dd6e	-0.012137754
18	0xbb5af063	-0.0033407442
19	0x3c6b2e95	0.014354368
20	0x3c67d160	0.01414904
21	0xbcbdea18	-0.023182914
22	0xbcaa305c	-0.020775013
23	0x3ce39e32	0.027785394
24	0x3c95515a	0.018227268
25	0xb883f7dd	-6.292735e-05
26	0x3d24362e	0.040090732
27	0x3a8cc488	0.0010739723
28	0xbbbb6c55	-0.0057197013
29	0x3c8f938e	0.017526414
30	0x3d159254	0.036516502
31	0x3d1e45ad	0.038640667
32	0x3c47a18c	0.012184512
33	0x3d24ebba	0.04026387
34	0xbbd10852	-0.0063791657
35	0xbc544741	-0.012956441
36	0x3ce5c5f8	0.0280485
37	0x3d116753	0.03549893
38	0xbada8eac	-0.00166746
39	0xbc9e6189	-0.019333618
40	0xbc975e3c	-0.018477552
41	0xbc059390	-0.008152857
42	0x3d6d73b0	0.057971656
43	0x3cd65643	0.02616418
44	0x3d1e3783	0.03862716
45	0x3cb6e186	0.022324335
46	0x3d48ad1e	0.048993222
47	0x3c6d8c75	0.01449882
48	0x3d52f91e	0.051507108
49	0x3bfc4a6f	0.007699303
50	0x3cb493ea	0.022043187
51	0x3d35b3c5	0.044360895
52	0x3d32c07f	0.04364061
53	0x3ccb83ad	0.024843061
54	0xbcccbdea	-0.024992902
55	0xbc10ae5f	-0.008830636
56	0x3d4cd458	0.050007194
57	0x3d041027	0.032241967
58	0xbc835a95	-0.016034404
59	0xba7e2d79	-0.0009696107
60	0x3ad8728b	0.0016513629
61	0x3d1e6fd6	0.038680874
62	0x3d376638	0.044775218
63	0x3c816623	0.015795773
64	0x3bd75edf	0.006572589
65	0x3d163fee	0.03668206
66	0x3cfac2a1	0.030610384
67	0x3d01d9be	0.031701796
68	0x3bacb4dc	0.0052705836
69	0xbc7e5838	-0.015523963
70	0x3b28755a	0.0025704713
71	0x3d21440a	0.039371528
72	0x3d0dbb49	0.034602437
73	0x3cc1377e	0.023586031
74	0x3c7be170	0.015373573
75	0x3ca0404e	0.019561913
76	0x3d0411b8	0.03224346
77	0x3b80a485	0.0039258623
78	0x3cc31edb	0.023818424
79	0x3c0e05da	0.008668387
80	0x3c5d6872	0.013513671
81	0x3cd75040	0.026283383
82	0x3cb33359	0.02187507
83	0xbcb4fc57	-0.022092981
84	0x3c181c65	0.0092841135
85	0xbbd80a2d	-0.00659301
86	0xbc6b58d0	-0.014364436
87	0xb9bdae64	-0.0003617882
88	0x3cb68460	0.022279918
89	0x3c52dae9	0.012869575
90	0x3c96d6b0	0.018412918
91	0xbc1a1772	-0.009405004
92	0xbca16685	-0.019702205
93	0xbc4ebafd	-0.012617824
94	0x3b503b70	0.0031773709
95	0xba23d691	-0.00062499294
96	0xbcb59baf	-0.022168962
97	0xbc556e2b	-0.013026754
98	0x3cb7fcf7	0.02245949
99	0x3d2ddbeb	0.04244606
100	0x3b32e5be	0.0027297582
101	0x3d038827	0.032112267
102	0xbc4a4233	-0.012344885
103	0x3c90b745	0.017665515
104	0xbbae99c1	-0.0053283875
105	0xbc920e67	-0.017829133
106	0x3c94296c	0.018086158
107	0x3d3a8f49	0.045546804
108	0x3d2bb85d	0.04192387
109	0xbc57c2b1	-0.013168977
110	0x3d3336dd	0.043753494
111	0x3cbb600b	0.022872945
112	0xbcc61037	-0.024177654
113	0x3d2e7c78	0.04259917
114	0xbcdf8d45	-0.027289042
115	0x3b9fd85c	0.004878087
116	0xbcf3b4f8	-0.029749379
117	0x3c7904f9	0.0151989395
118	0x3d1bc14d	0.038026143
119	0xbc4113e4	-0.011784527
120	0x3b99ab70	0.0046896264
121	0x3c7fb0e8	0.015606143
122	0x3d526300	0.051363945
123	0x3d48fdb9	0.049070094
124	0x3d1fdb93	0.03902776
125	0x3d3e0b14	0.046397284
126	0xbc9ed77d	-0.019389862
127	0xbac08c0e	-0.0014690177
128	0xbcee5cb1	-0.029096933
129	0xbcb592a6	-0.022164654
130	0xbc95d18d	-0.018288398
131	0x3d175275	0.03694387
132	0xbcbee6f0	-0.023303479
133	0x3ba0e163	0.0049096807
134	0x3cafd7b2	0.021465156
135	0x3d311661	0.043234233
136	0x3cc02769	0.023456292
137	0x3d31fd40	0.04345441
138	0x3d45940d	0.048236895
139	0xbc032a83	-0.008005741
140	0xbc909bae	-0.017652359
141	0x3bee3829	0.0072698784
142	0xbc92ff1a	-0.017943908
143	0xbc4dfa33	-0.012571859
144	0x3c337715	0.010953684
145	0xbc085c3f	-0.008322774
146	0xbc644b35	-0.013933946
147	0x3cbea8fc	0.023273937
148	0x3d3ab743	0.04558493
149	0x3d432fed	0.047653127
150	0x3c706981	0.014673592
151	0x3c61dec4	0.013786022
152	0x3cbb2b86	0.022847902
153	0x3d0f06c5	0.034918565
154	0xbc7f595e	-0.015585272
155	0x3c8abd19	0.016935872
156	0x3c982496	0.018572133
157	0x3c5ab832	0.01334958
158	0xb8e6fe74	-0.0001101465
159	0xbccfc23c	-0.025361173
160	0x3d068f30	0.032851398
161	0x3b337701	0.0027384164
162	0xbd16c78b	-0.036811393
163	0x3d218e99	0.039442632
164	0x3c9c5b6e	0.019086566
165	0x3d22cc96	0.03974589
166	0x3cb97923	0.02264077
167	0x3cee017e	0.029053446
168	0xbcee395c	-0.029080085
169	0xbcef3547	-0.02920021
170	0x3d12d58d	0.03584819
171	0x3bce5b0b	0.0062974743
172	0x3ca23dcb	0.019804856
173	0x3b7a2304	0.0038167844
174	0x3afa90ad	0.0019116603
175	0xbc5e916e	-0.013584478
176	0xbc0fb333	-0.008770752
177	0xbc2e887b	-0.010652657
178	0x3d5af2e2	0.053454287
179	0x3c5edacc	0.01360197
180	0xbc853f38	-0.016265497
181	0x3ca5ed91	0.020254882
182	0xbbc65ded	-0.0060536773
183	0x3b60a9c1	0.0034280869
184	0x3d079031	0.033096496
185	0x3ccc81c7	0.024964226
186	0x3ae38190	0.0017357338
187	0x3d74d1dd	0.059770454
188	0x3c7a785e	0.015287487
189	0x3d2dec70	0.042461812
190	0xbcb173ce	-0.021661665
191	0x3ca86148	0.0205542
192	0xbb08f708	-0.0020899195
193	0xbca24c97	-0.019811912
194	0x3c63cfcc	0.013904523
195	0xbbbbfea1	-0.0057371412
196	0x3d0c36ef	0.034232076
197	0x389ac97d	7.380822e-05
198	0x3d50c2d2	0.050967045
199	0x3d212792	0.039344378
200	0xbba6555f	-0.005076095
201	0xbbf9fa13	-0.007628688
202	0x3d247b73	0.040156793
203	0x3cb73a36	0.022366624
204	0x3d5a09ec	0.05323212
205	0x3d0ee9de	0.034891002
206	0x3ca334a8	0.01992257
207	0x3d0c919e	0.03431856
208	0x3d2d850d	0.042363215
209	0x3b164b40	0.0022933036
210	0xbcc7488c	-0.024326585
211	0xbc0faba0	-0.008768946
212	0x3d320258	0.043459266
213	0xbcc87cc4	-0.024473555
214	0x3cd39ea2	0.025832478
215	0x3c6a922f	0.014317079
216	0xbb30601a	-0.002691275
217	0xbc34f0f8	-0.01104378
218	0xbce18e87	-0.027533783
219	0x3d157b5c	0.036494598
220	0x3b8753e7	0.004129875
221	0x3c9c6f61	0.019096078
222	0x3d258ce6	0.040417574
223	0x3d2c2915	0.042031366
224	0x3cdf464a	0.027255196
225	0x3b09e396	0.0021040193
226	0x3ca611bf	0.020272134
227	0x3d4006e9	0.04688159
228	0x3c96f89c	0.018429093
229	0xbc9a7ac8	-0.018857375
230	0x3d3be752	0.0458749
231	0x3d29613f	0.041352507
232	0xbc76fe36	-0.015075257
233	0xbca87d2b	-0.020567497
234	0x3cbeca7e	0.023289915
235	0x3ce9c029	0.028534012
236	0x3d59c294	0.05316408
237	0x3d00fb1a	0.03148947
238	0xbbbfb2ce	-0.0058501726
239	0x3d3eaff3	0.046554517
240	0x3c8f34c7	0.01748122
241	0x3cd8f388	0.026483312
242	0x3c8f72ac	0.017510734
243	0x3ce15cf2	0.02751014
244	0x3cbaa2e5	0.022782752
245	0x3d1ee821	0.038795594
246	0x3c2b116e	0.010441167
247	0xbc178ec5	-0.0092503475
248	0x3c2a4802	0.010393145
249	0xbc9ef038	-0.019401655
250	0xbb01012a	-0.0019684532
251	0x3c985332	0.018594358
252	0x3cd2c179	0.02572702
253	0xbcd7e89e	-0.026356038
254	0x3d282a87	0.041056182
255	0x3d2afc3b	0.041744452

8.bias f4 [3]
0	0x3d6ff6e4	0.058585063
1	0x3b49577e	0.0030722315
2	0xbd188d7b	-0.0372443
